python_ml/models/AAPL/AAPL_lstm.pt (torch, 31441 bytes, 5 tensors)

weight_ih_l0 f4 [128, 1]
0	0xbd4e2787	-0.050330665
1	0xbd860bf4	-0.06545249
2	0x3dab5ef3	0.083677195
3	0x3dc743f8	0.09729761
4	0xbc987869	-0.018612104
5	0x3dcad060	0.099030256
6	0xbde6d15e	-0.11270402
7	0xbc5d3dac	-0.013503473
8	0x3da8723f	0.08224916
9	0xbd6dc3e0	-0.05804813
10	0x3d7cd718	0.061728567
11	0xbdf4ee83	-0.11959555
12	0xbd834631	-0.06409872
13	0xbdfcaa5b	-0.1233718
14	0x3db17456	0.086647674
15	0xbb27ccb6	-0.0025604195
16	0x3e3420f7	0.175907
17	0xbe378e5d	-0.17925401
18	0x3add1b60	0.001686912
19	0x3de58150	0.11206305
20	0xbd926651	-0.071484216
21	0xbd806c06	-0.06270604
22	0xbd4d0721	-0.050055627
23	0xbe3025ed	-0.17201968
24	0x3e1ec2af	0.15503953
25	0xbd8a9f93	-0.067687176
26	0x3b55544e	0.003255147
27	0x3d2fd726	0.04292979
28	0x3dc3d8d3	0.0956284
29	0x3df63de7	0.12023526
30	0xbe1cefee	-0.15325901
31	0x3d82a9c4	0.063800365
32	0xbdf709bc	-0.120624036
33	0xbe149dc2	-0.14513305
34	0x3de6587f	0.11247348
35	0x3d0f5952	0.034997292
36	0xbca9263d	-0.020648116
37	0x3d5beacb	0.053690713
38	0xbdbce4ea	-0.092233494
39	0xbe2a5b17	-0.1663631
40	0x3e47a08b	0.19494836
41	0x3df2e80b	0.11860665
42	0xbdca3dac	-0.09875044
43	0x3e123ec4	0.14281756
44	0xbe0577ed	-0.1303403
45	0x3dee5b2d	0.11638484
46	0xbd2f74eb	-0.04283611
47	0x3dfb9f43	0.12286236
48	0x3e180123	0.14844184
49	0xbdd93f6a	-0.106077984
50	0xbc386499	-0.011254453
51	0x3d886361	0.0665958
52	0x3da3165c	0.07963249
53	0x3da9ef92	0.082976475
54	0x3e04901a	0.12945595
55	0xbd6289c8	-0.05530718
56	0x3d35f6a8	0.044424683
57	0xbe2b407a	-0.16723815
58	0xbde5e082	-0.11224462
59	0x3d83a4e2	0.06427933
60	0xbddf3335	-0.10898439
61	0x3d8bb207	0.068210654
62	0xbd83af8a	-0.06429966
63	0x3cdd9303	0.02704764
64	0x3d3b0149	0.045655522
65	0x3be3d76e	0.0069531715
66	0x3e05ddb9	0.13072862
67	0x3da02042	0.07818653
68	0xbe2ed8d3	-0.170749
69	0x3acb5795	0.0015513772
70	0xbe17a1eb	-0.1480786
71	0x3e23e2af	0.16004442
72	0x3dd57fcc	0.10424766
73	0x3c79067d	0.015199301
74	0xbe431e3f	-0.19054507
75	0xbc5378c7	-0.0129072135
76	0xbdd86f7b	-0.10568138
77	0xbd414a97	-0.047190275
78	0x3da620d8	0.08111733
79	0x3cce4d5f	0.025183378
80	0x3e3eb6c0	0.18624401
81	0xbe2935aa	-0.16524377
82	0xbd91b5e2	-0.071147695
83	0x3d766c7d	0.060162056
84	0xbd70f357	-0.058825817
85	0xbcd045a5	-0.025423834
86	0xbd99d578	-0.07511419
87	0xbd96ac1b	-0.07357045
88	0xbe1263c1	-0.14295866
89	0x3d898416	0.067146465
90	0xbc5ffc15	-0.013670941
91	0x3d280835	0.04102345
92	0xbd8ec320	-0.06970811
93	0xbd964ec9	-0.07339246
94	0xbe013b81	-0.12620355
95	0x3e071820	0.13192797
96	0x3e44e016	0.19226107
97	0x3ce0db8e	0.027448442
98	0x3e214fed	0.15753146
99	0x3e1e18c0	0.15439129
100	0x3e0ce98c	0.13760966
101	0x3dbc63af	0.09198701
102	0xbe06b5bc	-0.13155264
103	0x3e2d573f	0.16927813
104	0x3c981115	0.018562833
105	0xbe2b6f3d	-0.16741653
106	0xbe48dcd1	-0.19615485
107	0xbda3e594	-0.08002773
108	0xbe11ceaf	-0.14239
109	0xbd28acfb	-0.041180592
110	0xbe2b0de1	-0.16704513
111	0x3db9a196	0.09064023
112	0xbd71b924	-0.059014454
113	0x3d1c63c2	0.038181074
114	0xbdf9539c	-0.1217415
115	0x3e402158	0.1876272
116	0xbe039913	-0.12851362
117	0xbde61788	-0.11234957
118	0x3e05f37f	0.13081168
119	0x3e10d1e9	0.14142574
120	0xbcf414ee	-0.029795136
121	0xbbf4929f	-0.0074637677
122	0xbc2ea7ad	-0.010660094
123	0xbce1685f	-0.027515588
124	0xbe086872	-0.13321093
125	0x3bc760f6	0.0060845567
126	0x3e05ee1c	0.13079113
127	0x3e475e9a	0.19469681

weight_hh_l0 f4 [128, 32]
0	0xbde82a21	-0.113361605
1	0xbdb7dcf7	-0.089776926
2	0x3dc2d21b	0.09512731
3	0x3dfaf0c9	0.122529574
4	0xbe1f9ae7	-0.15586434
5	0xbc137d75	-0.009002079
6	0x3db97f02	0.09057428
7	0xbd3efe6c	-0.046629354
8	0x3dee6eb2	0.11642207
9	0x3e2b5593	0.16731863
10	0x3e06892e	0.13138267
11	0x3e06e83b	0.13174526
12	0xbc307bd2	-0.010771709
13	0xbdb29150	-0.087191224
14	0xbdd9d06b	-0.10635456
15	0x3e17b72e	0.14815971
16	0xbddd9d1a	-0.1082098
17	0x3d30e055	0.04318269
18	0xbdd60c1f	-0.10451531
19	0x3d395146	0.045243524
20	0x3c7beced	0.015376312
21	0xbdbb7e68	-0.091549695
22	0xbdc1f064	-0.09469679
23	0x3cfee777	0.03111623
24	0x3cb8775b	0.02251785
25	0xbe197398	-0.14985502
26	0xbe173200	-0.14765167
27	0xbdac37c3	-0.08409073
28	0xbdac06bb	-0.08399721
29	0xba12061c	-0.00055703684
30	0xbe0b8785	-0.13625915
31	0xbe06ca18	-0.1316303
32	0x3cdd8f6b	0.027045926
33	0x3d362f18	0.044478506
34	0x3e1c046c	0.15236062
35	0xbd6146ac	-0.05499904
36	0xbd76fd0e	-0.060299926
37	0x3c56a005	0.013099675
38	0xbd152722	-0.036414273
39	0xbc4fd6ec	-0.012685519
40	0x3e1fa78b	0.15591256
41	0xbbc2a4a5	-0.0059400373
42	0xbc10090a	-0.008791218
43	0xbe11417d	-0.14185138
44	0xbd999f60	-0.075011015
45	0x3ce57f25	0.028014729
46	0xbd879e78	-0.066220224
47	0x3e1298fb	0.1431617
48	0xbddd369f	-0.10801434
49	0x3cb91578	0.022593245
50	0xbcdc86ea	-0.0269198
51	0xbdff5474	-0.1246728
52	0x3dec6d05	0.11544231
53	0xbe1645f3	-0.14675121
54	0xbe05493d	-0.1301622
55	0x3e2ee68e	0.17080137
56	0xbc75e459	-0.015008056
57	0xbbfe13c5	-0.0077538216
58	0xbdf615e7	-0.12015896
59	0xbdde7b80	-0.108633995
60	0x3e3e7cf9	0.18602361
61	0xbdbee54b	-0.09321078
62	0xbe0c80f2	-0.13721064
63	0x3e004746	0.12527189
64	0x3b4b34d7	0.0031006837
65	0xbdf53e13	-0.1197473
66	0xbe1cbf56	-0.15307364
67	0xbe105741	-0.14095785
68	0xbdef3166	-0.11679344
69	0xbe0117cb	-0.12606733
70	0x3e1203bb	0.14259236
71	0x3e119755	0.14217885
72	0xbe332f53	-0.17498522
73	0x3d5513ba	0.052020766
74	0x3e17eea7	0.14837132
75	0xbd99465c	-0.07484123
76	0xbca8e571	-0.020617219
77	0xbe29494b	-0.16531865
78	0x3e2c11e7	0.16803704
79	0x3e1b4c56	0.15165839
80	0x3d1cbd21	0.038266305
81	0x3e3f2f6b	0.18670432
82	0xbd1be3a7	-0.038058903
83	0x3c2e16fa	0.010625595
84	0xbd081ff4	-0.033233598
85	0xbdd55656	-0.10416858
86	0xbd120b57	-0.035655346
87	0x3d11091d	0.03540908
88	0x3da256e8	0.07926732
89	0xbe055a18	-0.1302265
90	0xbe27ca7b	-0.16385834
91	0xbe318336	-0.17335209
92	0x3d04acb5	0.03239127
93	0xbe0f1090	-0.13971162
94	0x3e2e5514	0.17024642
95	0xbe005a82	-0.12534526
96	0x3c0ac57f	0.008469938
97	0xbdced951	-0.101000436
98	0x3e2a3941	0.16623403
99	0xbca7723f	-0.020440219
100	0x3e39c43a	0.1814126
101	0xbd85d53a	-0.0653481
102	0x3d4d7691	0.0501619
103	0xbe1e1870	-0.1543901
104	0x3dce4cf0	0.100732684
105	0xbdeaac44	-0.11458638
106	0xbccf83d3	-0.025331413
107	0xbb9d289c	-0.004796101
108	0x3ddaa1a4	0.10675362
109	0xbbc6d112	-0.0060674036
110	0x3bac12c6	0.0052512614
111	0x3c37eee7	0.011226392
112	0x3d0e550c	0.034749076
113	0xbdeb6e7e	-0.11495684
114	0xbdf6c657	-0.12049549
115	0x3e0a05e0	0.13478804
116	0xbd9c5bbb	-0.07634684
117	0xbe1dfecf	-0.15429233
118	0xbde0933c	-0.10965583
119	0x3dc922ea	0.098211125
120	0xbdb56a20	-0.08858132
121	0x3dbec9b9	0.09315819
122	0xbd8af81a	-0.06785603
123	0x3e03eb6b	0.12882774
124	0x3da5c671	0.0809449
125	0xbdbad8ed	-0.091234066
126	0x3c9ba34f	0.01899877
127	0xbe2e3a34	-0.1701439
128	0xbd4025a8	-0.04691091
129	0x3e3e3806	0.18576059
130	0xbe00dd5e	-0.12584445
131	0xbddab7e8	-0.106796086
132	0x3c179819	0.0092525715
133	0xbda31f3e	-0.07964943
134	0x3e038b56	0.12846121
135	0xbca404e5	-0.020021865
136	0x3e2b4909	0.1672708
137	0x3dde0333	0.10840454
138	0x3bca8fed	0.006181708
139	0x3cd95024	0.026527472
140	0x3dd14a83	0.1021929
141	0x3d1956f3	0.037436437
142	0x3d23c59d	0.03998338
143	0x3d04bcce	0.03240662
144	0x3d4b2590	0.04959637
145	0xbde77c60	-0.113030195
146	0xbdf9bfc6	-0.12194781
147	0x3d795c1d	0.06087886
148	0xbcdd7f74	-0.027038313
149	0x3db6022f	0.08887135
150	0xbd6c0508	-0.057621986
151	0xbd4d6f6a	-0.05015508
152	0x3de640c4	0.11242822
153	0x3e356916	0.17715868
154	0xbe23e624	-0.1600576
155	0xbc9c19f0	-0.019055337
156	0xbdd10052	-0.10205139
157	0x3d7753b1	0.06038255
158	0x3df63513	0.12021842
159	0xbc196ee1	-0.0093648145
160	0x3d2094be	0.03920435
161	0xbd820d0c	-0.06350145
162	0xbdf8dabc	-0.12151095
163	0x3e08529c	0.13312763
164	0xbe0b146c	-0.13582009
165	0xbc58f7bf	-0.013242661
166	0xbce1e32d	-0.027574146
167	0xbdb7e20f	-0.08978664
168	0x3d3e26e2	0.0464238
169	0x3e1c7cea	0.15282026
170	0xbcf4f67a	-0.029902685
171	0x3d859fe7	0.065246396
172	0x3dc2a257	0.0950362
173	0x3cdc0962	0.026859943
174	0x3e10db01	0.14146043
175	0x3e338ed8	0.1753496
176	0xbde15ba0	-0.11003804
177	0xbe2a1bf9	-0.16612233
178	0xbe141cc6	-0.14464101
179	0x3d462744	0.04837729
180	0xbc17f3ba	-0.009274418
181	0xbd8b241d	-0.067939974
182	0x3da0cfec	0.07852158
183	0xbd4b1420	-0.04957974
184	0xbdcad715	-0.09904305
185	0x3c996979	0.018727051
186	0xbc1d132b	-0.0095870895
187	0xbddaaa2c	-0.10676989
188	0xbd9dadff	-0.07699203
189	0xbd4426eb	-0.047888678
190	0xbce0a6b3	-0.027423238
191	0x3c9be885	0.019031772
192	0xbe177b3a	-0.14793101
193	0x3e13d63a	0.1443719
194	0xbd6ae579	-0.05734775
195	0xbddaf537	-0.10691302
196	0xbd5ffea5	-0.054686207
197	0xbdae0b3e	-0.08498238
198	0x3cac664d	0.021044875
199	0xbd8381fd	-0.06421278
200	0xbe07d270	-0.1326387
201	0x3dccf636	0.100078985
202	0xbe4655ce	-0.1936867
203	0x3d33b630	0.04387492
204	0xbe182187	-0.1485654
205	0x3e055d99	0.13023986
206	0xbdb4c358	-0.08826321
207	0x3dfb15d8	0.12260026
208	0x3da44907	0.08021741
209	0xbe1a7847	-0.15084945
210	0xbd2c3499	-0.04204235
211	0xbc26ab24	-0.010172639
212	0xbe1493c2	-0.1450949
213	0x3d528227	0.051393654
214	0x3dd4372a	0.10362084
215	0x3ca77533	0.020441627
216	0xbde52804	-0.11189273
217	0x3e34f1ba	0.17670336
218	0x3dd67b46	0.10472731
219	0x3b09127c	0.0020915559
220	0x3e0f5c17	0.13999973
221	0x3c8d6687	0.017260803
222	0x3e10afb8	0.14129531
223	0xbe23af2b	-0.1598479
224	0xbbe27187	-0.006910506
225	0xbd9f3ebe	-0.07775639
226	0x3ca7c40d	0.020479226
227	0xbe1b5a1c	-0.15171093
228	0x3b50a8e8	0.0031838957
229	0x3e25a62b	0.1617667
230	0xbdd08025	-0.10180692
231	0x3e058ce1	0.13042022
232	0xbd8b0955	-0.06788889
233	0x3deb5b1a	0.114919856
234	0xbd622711	-0.055213038
235	0x3dc41a48	0.09575325
236	0xbdfac75b	-0.12245055
237	0xbe151a61	-0.14560844
238	0x3e04c148	0.12964356
239	0xbd8d4874	-0.06898585
240	0x3d7fecda	0.06248174
241	0xbc85dd65	-0.01634092
242	0x3e1a65fe	0.1507797
243	0x3cf57926	0.029964995
244	0xbcb910f6	-0.022591095
245	0x3dc3b970	0.09556854
246	0xbd8697cf	-0.06571924
247	0xbdb1e587	-0.08686357
248	0xbc63dac7	-0.013907141
249	0x3e0a2b1b	0.13493006
250	0xbda8420c	-0.082157224
251	0x3d77a770	0.060462415
252	0x3c839c4b	0.016065737
253	0xbd8312be	-0.06400059
254	0xbe2dec4a	-0.16984668
255	0xbda567bf	-0.080764286

bias_ih_l0 f4 [128]
0	0xbc7f9a11	-0.015600697
1	0xbdd86eaf	-0.10567986
2	0x3e48e5a3	0.1961885
3	0x3defd1ed	0.11709962
4	0x3e3160fb	0.17322151
5	0xbc7fb591	-0.015607254
6	0x3c562ce4	0.013072226
7	0xbe03c27b	-0.12867157
8	0x3e23f868	0.16012728
9	0x3c20acfb	0.009806867
10	0x3e133381	0.14375116
11	0xbd50d050	-0.050979912
12	0x3dba1e9c	0.090878695
13	0xbdb49176	-0.08816807
14	0xbe1e0b1b	-0.15433924
15	0x3dbb811a	0.091554835
16	0xbe0ad2d4	-0.13556987
17	0x3e00d516	0.12581286
18	0x3d4a0380	0.049319744
19	0x3dc0c822	0.09413172
20	0xbde12bd7	-0.1099469
21	0x3dcc471f	0.09974503
22	0x3dd1e112	0.10248007
23	0x3d1e6cbc	0.038677916
24	0x3e044182	0.12915614
25	0xbdd1077c	-0.10206506
26	0xbdc73947	-0.09727722
27	0x3ce198ff	0.027538775
28	0x3c0b10c9	0.008487889
29	0x3d8850e1	0.066560514
30	0xbe0733e7	-0.13203393
31	0xba8f0f74	-0.001091464
32	0x3e2caaba	0.16862002
33	0x3e1b8b28	0.15189803
34	0xbd73de76	-0.059538327
35	0xbd362e88	-0.04447797
36	0x3e2f3b63	0.17112498
37	0xbe3fe479	-0.18739499
38	0x3d02b365	0.031909365
39	0xba0eb9ef	-0.00054445764
40	0xbc81c51e	-0.015841063
41	0xbe2d4f52	-0.1692479
42	0x3e229627	0.15877591
43	0xbdd69284	-0.104771644
44	0xbdd59be7	-0.10430127
45	0xbcf4170f	-0.029796151
46	0xbdab7213	-0.08371367
47	0xbb814c5e	-0.0039458713
48	0x3da2b34e	0.07944356
49	0xbd8b5df4	-0.068050295
50	0xbd5f4e0a	-0.054517783
51	0x3e485851	0.1956494
52	0xbdf2a5f1	-0.11848057
53	0xbe008544	-0.12550837
54	0xbdcbc096	-0.09948842
55	0x3da17aeb	0.07884773
56	0x3ccdda43	0.02512849
57	0xbd2c346c	-0.04204218
58	0x3d8a5e3f	0.06756257
59	0xbda9f552	-0.08298744
60	0xbd361d55	-0.044461567
61	0x3d4399b0	0.04775399
62	0x3d59c513	0.05316646
63	0x3e457052	0.19281128
64	0xbd0805c9	-0.033208642
65	0x3d2489de	0.040170543
66	0xbc830f91	-0.015998634
67	0x3e079bcc	0.13243026
68	0xbe142db8	-0.14470565
69	0x3d5d7fc4	0.054076925
70	0x3a464cbd	0.00075645355
71	0x3d97bcfe	0.07409094
72	0x3d440f2f	0.047866043
73	0xbb781eb5	-0.00378601
74	0x3ce48bbd	0.027898664
75	0xbd0a5239	-0.03376982
76	0x3dde3a94	0.10851017
77	0xbccc55d4	-0.02494327
78	0x3de0103e	0.10940598
79	0xbe32faa0	-0.17478418
80	0x3e2bef94	0.1679061
81	0x3d6fab3a	0.058512904
82	0xbbef6948	-0.0073062517
83	0x3e190982	0.14945033
84	0x3d5aedeb	0.053449553
85	0x3d0bba00	0.03411293
86	0xbc336758	-0.010949932
87	0xbdcf27f2	-0.10115041
88	0xb9eb429b	-0.00044872318
89	0x3d5a0870	0.053230703
90	0xbd9272dd	-0.07150815
91	0xbe0f65b7	-0.14003645
92	0x3db029ae	0.086017
93	0xbcbc5b08	-0.022992626
94	0xbdb25b6b	-0.08708843
95	0x3e4108a8	0.18850958
96	0xbd0c9b36	-0.03432771
97	0xbde1ab12	-0.11018957
98	0xbe090cf0	-0.13383842
99	0x3d47b859	0.048759792
100	0xbdc8e3f7	-0.09809106
101	0xbe383845	-0.17990215
102	0xbd899add	-0.06718991
103	0xbc6df976	-0.014524808
104	0x3e10ef93	0.1415389
105	0x3dc46df2	0.09591283
106	0x3e11ee0e	0.14250967
107	0x3ad823ca	0.0016490158
108	0xbe06ef99	-0.13177337
109	0x3dfd8b41	0.12380076
110	0xbd9e4e12	-0.077297345
111	0x3e18e3d9	0.14930667
112	0xbc5682d4	-0.013092715
113	0xbdde7ed6	-0.10864036
114	0x3d6e42f4	0.05816932
115	0xbd26f033	-0.040756416
116	0x3dfaef3c	0.122526616
117	0x3d2f45d7	0.042791214
118	0x3d1482a5	0.036257405
119	0xbd846ca6	-0.064660355
120	0x3b36334d	0.0027801574
121	0xbd8f681c	-0.07002279
122	0x3ca1f7df	0.019771514
123	0x3d993be7	0.074821286
124	0x3b1ad1bc	0.0023623547
125	0xbd6b45ab	-0.057439487
126	0xbdd97070	-0.10617149
127	0x3e436ddc	0.19084877

bias_hh_l0 f4 [128]
0	0xbe186bdf	-0.148849
1	0x3e1b55b5	0.15169413
2	0x3d2fa5fe	0.04288291
3	0xbe3c7fa7	-0.1840807
4	0x3d3d2413	0.04617698
5	0x3decdc86	0.11565499
6	0xbdf84f87	-0.12124544
7	0x3e019dbf	0.12657832
8	0x3e26deb3	0.1629589
9	0x3c5f5cbf	0.013632952
10	0xbdb95fdf	-0.09051489
11	0x3bcc0307	0.006225947
12	0x3d373efb	0.044737797
13	0xba8233ac	-0.0009933612
14	0xbe0cdabe	-0.13755319
15	0x3d8924fb	0.066965066
16	0xbe1543fc	-0.14576715
17	0xbdfb99aa	-0.122851685
18	0x3de14742	0.109999195
19	0xbd6ffccf	-0.058590706
20	0xbd0e42ea	-0.034731783
21	0xbc6212bc	-0.013798412
22	0xbdec6383	-0.11542418
23	0xbe218111	-0.15771891
24	0xbe37c95a	-0.17947903
25	0x3e2de19d	0.16980596
26	0x3e10c463	0.14137416
27	0x3cc842ca	0.02444591
28	0xbe1bc0c9	-0.1521026
29	0xbdb1bba6	-0.08678369
30	0xbdf9fb83	-0.12206175
31	0x3dc5b4a5	0.09653596
32	0xbdbfd741	-0.09367228
33	0xbccf11b7	-0.025277002
34	0xbdc79cee	-0.09746729
35	0xbd772685	-0.06033947
36	0x3d85d732	0.06535186
37	0x3dc12312	0.09430517
38	0xbe1f2498	-0.15541303
39	0x3d026738	0.03183672
40	0x3cd948b1	0.02652392
41	0x3deac5b2	0.11463489
42	0xbd68befe	-0.05682277
43	0x3dbf6732	0.09345855
44	0xbe051326	-0.12995586
45	0x3d3f5934	0.04671593
46	0x3d50588a	0.050865687
47	0x3cf17138	0.029472932
48	0xbb8be00e	-0.0042686528
49	0x3d727c57	0.05920061
50	0xbdfd394e	-0.123644456
51	0x3ddc8a5b	0.10768577
52	0x3dab58ca	0.083665445
53	0x3dc7d98c	0.09758291
54	0xbe1ae6e1	-0.15127136
55	0x3dacf5b3	0.08445301
56	0xbcb3650e	-0.021898773
57	0x3cd465aa	0.025927383
58	0xbd4254c4	-0.04744412
59	0xbe009cce	-0.12559816
60	0xbd948b8a	-0.072531775
61	0x3d58955d	0.05287682
62	0x3d994503	0.07483866
63	0xbc9ce408	-0.019151703
64	0x3d14b930	0.03630942
65	0x3cb8ac3b	0.022543063
66	0xbdeb06fb	-0.11475941
67	0x3c193387	0.009350664
68	0xbdb7f626	-0.08982496
69	0x3db32c72	0.08748712
70	0x3ce1f266	0.027581405
71	0xbd9dbb29	-0.077017136
72	0xbcaf99e2	-0.021435682
73	0x3ddeb4f5	0.108743586
74	0x3d50cef0	0.0509786
75	0xbe0071f1	-0.12543465
76	0x3cbfed05	0.02342845
77	0xbda91c12	-0.08257307
78	0x3dea4c79	0.11440367
79	0x3d77ad86	0.06046822
80	0xbcdcf1c2	-0.026970748
81	0x3dc9aa7e	0.09846972
82	0xbe0eaf17	-0.13933979
83	0xbd2c82ff	-0.042117115
84	0xbdfb4db7	-0.12270682
85	0xbdf28bcb	-0.1184307
86	0x3e3db88b	0.18527429
87	0xbe23a5d6	-0.1598123
88	0x3d80be1e	0.06286262
89	0xbe039460	-0.1284957
90	0xbca14c69	-0.019689756
91	0xbd53cce0	-0.051709056
92	0x3e10d4be	0.14143655
93	0x3df5b59c	0.1199753
94	0x3da6eb89	0.081503935
95	0x3d2f1c60	0.04275167
96	0x3e3e3fec	0.18579072
97	0xbd21c802	-0.039497383
98	0x3e261f4a	0.16222873
99	0xbe27c0d8	-0.16382158
100	0xbd835a7c	-0.06413743
101	0xbe1de16a	-0.1541802
102	0x3d7d0734	0.061774448
103	0x3e268391	0.16261126
104	0x3e1c28c5	0.15249927
105	0x3c6f67ed	0.01461218
106	0xbe18ad93	-0.14909963
107	0x3dfd3df9	0.12365336
108	0x3d98b2cc	0.07455978
109	0xbd24a1d9	-0.040193412
110	0x3c4454f9	0.01198315
111	0xbde92b7f	-0.11385249
112	0x3e310e63	0.17290644
113	0x3e0fef3d	0.14056106
114	0xbe33b6be	-0.1755018
115	0xbd671f60	-0.056426406
116	0xbddeda27	-0.10881453
117	0x3cf2b120	0.029625475
118	0x3de893e0	0.1135633
119	0xbdaaedb4	-0.083461195
120	0xbdfee8f3	-0.12446775
121	0x3e380ed7	0.17974411
122	0xbdf26e0b	-0.11837395
123	0x3e0a5b9d	0.1351151
124	0xbd554cae	-0.05207508
125	0x3d214612	0.039373465
126	0x3e076cc4	0.13225085
127	0x3d7226c4	0.059119

weight f4 [1, 32]
0	0xbd478b30	-0.048716724
1	0x3d5c6647	0.053808477
2	0xbe200c73	-0.15629749
3	0x3dd71ef4	0.10503951
4	0x3da2566c	0.0792664
5	0xbe2058db	-0.15658896
6	0xbd32807c	-0.043579563
7	0xbe166086	-0.14685258
8	0xbe381a2f	-0.17978738
9	0x3e2bbdcc	0.1677162
10	0x3d16aa55	0.036783535
11	0x3e2e7913	0.17038374
12	0x3c2519ea	0.010076979
13	0x3e2b93fe	0.16755673
14	0x3d35a03e	0.044342272
15	0x3df2b269	0.11850435
16	0xbdbb8463	-0.0915611
17	0x3da7a23b	0.0818524
18	0xbd9b01eb	-0.07568725
19	0xbd9c54e5	-0.0763338
20	0x3df42c7e	0.11922549
21	0x3df0733a	0.11740728
22	0xbc9099db	-0.017651489
23	0xbe026f38	-0.12737739
24	0xbdfcccf4	-0.12343779
25	0xbe0462bb	-0.12928288
26	0x3d59d801	0.053184513
27	0xbd81546b	-0.063149296
28	0xbdda1da7	-0.10650187
29	0xbd9421cf	-0.07233011
30	0x3d8ce018	0.0687868
31	0xbbede764	-0.00726025
